Machine Learning Tutorial Projects/Snake Reinforcement Learning Project/model/model.pth (torch, 17216 bytes, 4 tensors)

linear1.weight f4 [256, 11]
0.2045176 -0.43863836 0.5143305 -0.105805255 -0.033714585 -0.033705834 -0.11270348 0.17579715
0.09640555 0.13053432 0.27967325 0.20713764 -0.49453464 -0.13652828 -0.18255687 0.3431699
0.09210589 -0.15888225 0.13417831 -0.42499948 -0.27085182 -0.25881433 -0.15875684 -0.12053276
0.11389425 -0.5204364 -0.4579976 0.38844636 0.40148667 -0.57176286 -0.6103334 0.28548136
0.3408081 0.23917204 0.20668069 0.05741282 -0.002316311 -0.06905136 -0.009158316 -0.052587315
0.39430296 0.38829654 0.34749216 0.38364547 -0.18453343 0.28410813 -0.20544577 0.07062454
0.13027157 -0.58263934 0.14602083 0.112366945 -0.100619674 0.3859635 0.07199456 -0.42183608
-0.17266949 0.108673915 -0.4996279 0.2174821 0.31404832 0.2837078 -0.78411674 -0.11131147
-0.044493828 0.01716954 0.32350278 0.676302 -0.3955689 -0.011076529 -0.10024403 -0.26118317
-0.02241942 0.11860296 0.18449803 0.26264033 -0.083479494 -0.08334514 0.5449332 0.19665861
-0.08739219 -0.22256334 0.06964113 -0.33095485 0.1380489 0.32009447 0.11895263 0.35310498
-0.15284441 0.0044229818 0.23610492 0.31557488 0.14781153 -0.15682049 -0.27316853 0.20079133
-0.019039145 -0.5636725 -0.41827217 -0.15050204 0.052351054 0.03189458 0.26044822 -0.35257807
0.029743094 -0.3771859 -0.5238321 -0.640228 -0.4680265 0.2123902 0.15961799 0.032737177
-0.0009793658 0.40615153 0.32173297 -0.5071891 -0.3601079 -0.48717442 -0.6510942 0.41849408
0.20536946 0.5428277 0.22807625 0.082458824 -0.18699038 -0.33196145 -0.3020487 -0.1260555
0.3491553 0.4241534 0.3788169 0.28341427 0.008562917 -0.5573723 0.012429434 0.07802715
0.36012694 -0.3327823 -0.3871779 -0.53010374 -0.7082368 0.09396618 0.3153477 -0.12243213
-0.0736061 0.018643856 0.1736714 0.20072562 -0.0033897161 0.05135244 -0.21249822 -0.16678242
-0.28319663 -0.22292942 0.1135417 0.44842112 0.43037942 -0.029657947 -0.40100804 -0.45123604
0.08818129 0.14205338 0.5609054 0.5916116 0.15520458 -0.17643312 -0.24885362 0.14009911
-0.33069924 0.40350595 -0.2707526 0.4508427 -0.66165304 0.10567366 -0.49518582 0.0862759
-0.07206956 0.1552865 0.11984236 -0.11865027 0.20627654 -0.035020344 0.071267076 -0.057895795
-0.09926534 -0.108240455 -0.17769966 0.035868067 -0.26138207 0.44609687 -0.3982 -0.32051098
0.0154534625 -0.066408604 -0.3282855 -0.30906847 0.10831087 -0.11532618 -0.22369389 0.18616395
0.07470551 0.29459894 0.067805074 -0.19364595 0.3254551 -0.0014702852 -0.06965351 -0.82615566
-0.3744252 -0.30654722 -0.058597162 0.030615022 0.29558262 -0.61297625 0.28292245 0.016691115
-0.05747872 -0.7868585 -0.2865061 0.05629243 0.058248494 0.48390022 0.30303672 0.0036120503
-0.061225556 0.11354996 0.102605075 0.34537098 0.30753657 0.48093003 0.5106809 0.24904165
-0.60573 0.46391252 -0.15487804 -0.13872874 -0.3880143 0.013529363 0.005546949 0.053311385
0.16153036 -0.37312484 0.17744565 -0.82526946 0.47983494 -0.34152883 -0.28822607 -0.22071029
0.2612398 0.13147444 0.056057937 -0.5540605 -0.07997884 0.37055907 0.48396692 0.07971385
00000000: 106d 513e 3595 e0be 2aab 033f 6db0 d8bd
00000010: 4e18 0abd 210f 0abd 15d1 e6bd 2b04 343e
00000020: 4670 c53d caaa 053e 5531 8f3e e41b 543e
00000030: a533 fdbe 12ce 0bbe 30f0 3abe f7b3 af3e
00000040: 03a2 bc3d 07b2 22be 0a66 093e 8899 d9be
00000050: 17ad 8abe 5083 84be 2791 22be e1d9 f6bd
00000060: 6341 e93d 523b 05bf a97e eabe 71e2 c63e
00000070: a98f cd3e 0d5f 12bf cf3e 1cbf 9d2a 923e
00000080: 667e ae3e 84e9 743e 1aa4 533e b529 6b3d
00000090: 40cd 17bb cd6a 8dbd c30c 16bc cc65 57bd
000000a0: 14e2 c93e cece c63e 7eea b13e 2e6d c43e
000000b0: 55f6 3cbe 9f76 913e 6060 52be 99a3 903d
000000c0: e965 053e da27 15bf 7c86 153e a420 e63d
000000d0: b011 cebd 029d c53e e271 933d e6fa d7be
000000e0: 45d0 30be 6e90 de3d 3acf ffbe a1b3 5e3e
000000f0: f1ca a03e 2642 913e e0bb 48bf 45f7 e3bd
00000100: 293f 36bd 23a7 8c3c 28a2 a53e 2122 2d3f
00000110: 0288 cabe 547a 35bc be4c cdbd cdb9 85be
00000120: eea8 b7bc 1ce6 f23d 0ded 3c3e cb78 863e
00000130: 4cf7 aabd dbb0 aabd be80 0b3f e060 493e
00000140: adfa b2bd a5e7 63be 02a0 8e3d ea72 a9be
00000150: b15c 0d3e 6ce3 a33e 709d f33d 2dca b43e
00000160: 3f83 1cbe a9ee 903b 7dc5 713e 0893 a13e
00000170: e85b 173e 8d95 20be bfdc 8bbe 3e9c 4d3e
00000180: fbf7 9bbc d74c 10bf c527 d6be 351d 1abe
00000190: 0f6e 563d e4a3 023d 7859 853e 1d85 b4be
000001a0: caa7 f33c 831e c1be dc19 06bf fbe5 23bf
000001b0: 2ba1 efbe d17c 593e e672 233e 6b17 063d
000001c0: 105e 80ba 18f3 cf3e 2fba a43e 25d7 01bf
000001d0: 1060 b8be ed6e f9be 1cae 26bf db44 d63e
000001e0: 5f4c 523e c2f6 0a3f d28c 693e 2ce0 a83d
000001f0: 687a 3fbe daf6 a9be 21a6 9abe b114 01be
00000200: 7cc4 b23e a22a d93e 4af4 c13e ad1b 913e
00000210: 7a4b 0c3c f3af 0ebf d3a4 4b3c b3cc 9f3d
00000220: 8f62 b83e 7162 aabe 2f3c c6be e1b4 07bf
00000230: 024f 35bf 5771 c03d 4175 a13e b2bd fabd
00000240: ccbe 96bd 00bb 983c ead6 313e 048b 4d3e
00000250: 0026 5ebb f056 523d 2299 59be 03c9 2abe
00000260: 26ff 90be 9c47 64be 8d88 e83d 7497 e53e
00000270: b15a dc3e 39f5 f2bc ed50 cdbe 6908 e7be
00000280: 6498 b43d 7176 113e 7f97 0f3f dc73 173f
00000290: f3ed 1e3e e2aa 34be 7cd3 7ebe 2476 0f3e
000002a0: 6951 a9be 5598 ce3e 16a0 8abe dbd4 e63e
000002b0: 1862 29bf 6f6b d83d ff88 fdbe 6bb1 b03d
000002c0: 3599 93bd 6d03 1f3e e96f f53d eafe f2bd
000002d0: 283a 533e 7e71 0fbd 79f4 913d 2424 6dbd
000002e0: a04b cbbd 2cad ddbd e6f6 35be 65ea 123d
000002f0: dfd3 85be cf66 e43e dfe0 cbbe 041a a4be
00000300: 8530 7d3c 3c01 88bd 0915 a8be 393e 9ebe
00000310: 17d2 dd3d 2230 ecbd 0310 65be c3a1 3e3e
00000320: 34ff 983d acd5 963e 63dd 8a3d 204b 46be
00000330: 0da2 a63e 96b6 c0ba 80a6 8ebd f07e 53bf
00000340: a9b4 bfbe c2f3 9cbe 9403 70bd 5bcc fa3c
00000350: 9b56 973e 03ec 1cbf 36db 903e cebb 883c
00000360: ce6e 6bbd 8f6f 49bf edb0 92be e492 663d
00000370: f995 6e3d c5c1 f73e a127 9b3e 26b8 6c3b
00000380: a6c7 7abd e28c e83d 9c22 d23d 77d4 b03e
00000390: 6f75 9d3e 763c f63e fcbb 023f c604 7f3e
000003a0: 1f11 1bbf f185 ed3e 5998 1ebe e80e 0ebe
000003b0: cfa9 c6be 43aa 5d3c 2ec3 b53b 0a5d 5a3d
000003c0: 3768 253e 380a bfbe 50b4 353e dc44 53bf
000003d0: edac f53e dedc aebe 5e92 93be e101 62be
000003e0: 39c1 853e 3ca1 063e 029d 653d e9d6 0dbf
000003f0: f2cb a3bd ebb9 bd3e 83ca f73e 0441 a33d

linear1.bias f4 [256]
-0.20293008 0.043462507 0.1513195 -0.46329123 -0.28713533 0.63932747 -0.23641369 -0.19112054
-0.30522963 0.084171206 0.06719574 -0.1727237 0.075579345 -0.108196154 -0.28861177 0.19555108
-0.40153176 -0.309495 0.5000525 0.51372117 -0.501343 -0.12853421 0.11145506 -0.27501652
-0.12147455 -0.33882663 -0.19816288 1.2165327 0.10681854 -0.21559337 -0.32975462 -0.1683977
0.20378214 0.4054828 0.006602141 -0.05509311 0.24763007 -0.10207999 -0.22084881 -0.09894426
0.03048078 -0.47641566 -0.22675721 -0.21834685 0.09890276 -0.37207213 -0.45944372 -0.15878119
-0.3569558 0.030072413 -0.020327218 -0.2223952 -0.12885062 0.24433845 -0.20304099 -0.37683234
0.051364586 -0.07457021 -0.3809898 -0.053514153 -0.39251512 0.481189 -0.42051962 -0.172962
0.03505773 -0.2592999 0.13313648 -0.19332197 -0.31603676 -0.28446752 0.16874984 -0.41213718
0.2153442 -0.11429843 -0.027142469 -0.3636611 -0.36698958 -0.36541724 0.8719603 -0.26100627
-0.43090197 0.06544405 -0.03849433 0.12501593 -0.21657105 -0.2936289 -0.0045304894 -0.2523293
0.24171387 -0.28217262 0.41416103 0.14974324 0.01068357 -0.3973864 -0.21134017 -0.53661126
-0.19422802 -0.3991199 -0.28757396 0.0011237207 -0.2320344 -0.06354419 0.42228907 0.16835226
-0.20203781 -0.2167945 -0.38384235 -0.047365595 -0.07895154 -0.08449818 -0.15441243 -0.22613399
-0.21863149 0.07716616 -0.18234213 -0.028681602 0.4426067 -0.32053655 0.061515413 0.11573043
-0.35969236 0.018785309 -0.011249479 -0.2094697 0.40701512 -0.30677953 -0.2208414 -0.052726172
-0.022906102 0.027542293 -0.2372826 -0.10904092 -0.019895421 -0.020242674 -0.364877 -0.03276244
0.54585886 0.29487124 -0.21124978 -0.35904828 -0.12740807 -0.10554936 -0.38919428 0.08276291
-0.04934134 -0.354049 -0.18481193 -0.4239129 -0.02054672 -0.009398978 -0.0045731356 -0.117909536
-0.45229706 0.29162422 -0.003925384 -0.18089963 0.2266952 0.15073825 -0.10888645 -0.32371315
-0.36128452 0.050431684 -0.1651537 0.009473607 -0.36285838 -0.3436986 -0.15953466 0.17904954
0.40541857 0.12580548 -0.1269219 -0.41624 -0.027149022 -0.36724836 -0.050253563 -0.043360397
-0.031335227 -0.33203396 0.32235104 -0.2359939 0.09907143 -0.26898605 -0.33709395 0.080187336
0.00015045046 0.13569613 -0.04101194 -0.16462834 -0.017959908 0.0024871412 -0.21590179 0.060568914
0.6118854 -0.03378296 -0.12073836 -0.11639179 0.008869057 0.3605446 0.30906755 -0.057570487
-0.06796617 -0.36032993 -0.4777578 -0.37487912 -0.051117904 -0.07985857 -0.2302948 -0.19853501
0.27614215 -0.010339075 -0.47617647 -0.021962456 -0.3614196 -0.23295645 0.3091421 -0.059603646
0.2522633 0.83709884 -0.11948522 -0.2516602 0.0064526703 0.035977002 -0.22289085 0.055591498
0.43721074 -0.20178182 -0.15616858 -0.24685836 -0.32325473 -0.3430639 0.23427851 -0.30911273
-0.2258358 -0.095151894 0.099926144 0.11470523 -0.11569254 -0.2527307 -0.2153102 -0.3808655
-0.327883 -0.020298762 -0.13905989 -0.24622653 0.057578474 -0.03508188 -0.20093356 -0.0830326
0.5500846 0.2889673 -0.30323082 -0.2854631 -0.23086521 0.11717449 -0.12060096 0.0035157301
00000000: e7cc 4fbe be05 323d 80f3 1a3e 8234 edbe
00000010: 6703 93be f7aa 233f 6e16 72be 1ab5 43be
00000020: 0f47 9cbe f461 ac3d ec9d 893d 7bde 30be
00000030: 58c9 9a3d f295 ddbd ecc4 93be 8b3e 483e
00000040: 9295 cdbe 2176 9ebe 7103 003f 3b83 033f
00000050: 0458 00bf 799e 03be 8d42 e43d f7ce 8cbe
00000060: a6c7 f8bd af7a adbe 36eb 4abe 58b7 9b3f
00000070: aec3 da3d 82c4 5cbe 99d5 a8be 7270 2cbe
00000080: 44ac 503e 719b cf3e c656 d83b 50a9 61bd
00000090: bd92 7d3e 500f d1bd 3126 62be 4aa3 cabd
000000a0: d4b2 f93c c1ec f3be 0b33 68be 5196 5fbe
000000b0: 888d ca3d 3d80 bebe 353c ebbe 8997 22be
000000c0: e9c2 b6be 6c5a f63c 4485 a6bc 91bb 63be
000000d0: 6bf1 03be dc33 7a3e fae9 4fbe 2bf0 c0be
000000e0: ac63 523d 44b8 98bd 1811 c3be a831 5bbd
000000f0: bef7 c8be 685e f63e 594e d7be f31c 31be
00000100: b298 0f3d f5c2 84be ee54 083e 32f6 45be
00000110: 92cf a1be baa5 91be c2cc 2c3e a503 d3be
00000120: 3183 5c3e 4c15 eabd e259 debc ca31 babe
00000130: 0fe6 bbbe f817 bbbe ca38 5f3f 9da2 85be
00000140: 2f9f dcbe 8807 863d 3bac 1dbd 2d04 003e
00000150: cdc4 5dbe 8756 96be 8074 94bb 4e31 81be
00000160: d783 773e ee78 90be ea0c d43e 4b56 193e
00000170: 240a 2f3c 3b76 cbbe 8f69 58be 5b5f 09bf
00000180: b6e3 46be 7259 ccbe e53c 93be cf49 933a
00000190: 6d9a 6dbe 7523 82bd 4636 d83e 8964 2c3e
000001a0: 00e3 4ebe 61ff 5dbe fc86 c4be 6d02 42bd
000001b0: 58b1 a1bd 620d adbd 4b1e 1ebe ab8f 67be
000001c0: efe0 5fbe 4b09 9e3d e5b7 3abe aef5 eabc
000001d0: 589d e23e 5e1d a4be 96f7 7b3d 1304 ed3d
000001e0: 9929 b8be a6e3 993c bc4f 38bc 3a7f 56be
000001f0: 4964 d03e 3512 9dbe 3f24 62be 66f7 57bd
00000200: 94a5 bbbc 60a0 e13c 36fa 72be d950 dfbd
00000210: b9fb a2bc f7d3 a5bc 28d1 babe e931 06bd
00000220: 68bd 0b3f 5df9 963e dd51 58be 2dd5 b7be
00000230: 4377 02be 432a d8bd 7944 c7be 9a7f a93d
00000240: 251a 4abd e945 b5be 573f 3dbe 1d0b d9be
00000250: 9851 a8bc 2cfe 19bc 3eda 95bb 8e7a f1bd
00000260: 7b93 e7be c54f 953e 82a0 80bb c13d 39be
00000270: c922 683e 215b 1a3e dcff debd bbbd a5be
00000280: 49fa b8be 7491 4e3d 0d1e 29be 3037 1b3c
00000290: 93c8 b9be 43f9 afbe 0e5d 23be c358 373e
000002a0: 0693 cf3e 27d3 003e d1f7 01be 691d d5be
000002b0: a067 debc fa07 bcbe aed6 4dbd ac9a 31bd
000002c0: 5e59 00bd 5b00 aabe 320b a53e 63a8 71be
000002d0: f6e5 ca3d 8ab8 89be 9497 acbe 4239 a43d
000002e0: 3dc2 1d39 edf3 0a3e 23fc 27bd 5594 28be
000002f0: a820 93bc 4eff 223b 5c15 5dbe 1c17 783d
00000300: 86a4 1c3f 0060 0abd ac45 f7bd d25e eebd
00000310: 854f 113c 4d99 b83e 1a3e 9e3e 08cf 6bbd
00000320: d931 8bbd 2a7d b8be ac9c f4be 28f0 bfbe
00000330: 0261 51bd e48c a3bd 66d2 6bbe c34c 4bbe
00000340: 8162 8d3e 3965 29bc 67cd f3be 9cea b3bc
00000350: fd0b b9be 238c 6ebe e047 9e3e f422 74bd
00000360: a828 813e 1c4c 563f abb4 f4bd 9bd9 80be
00000370: ec70 d33b 9f5c 133d 803d 64be e9b3 633d
00000380: 16da df3e e59f 4ebe a8ea 1fbe 70c8 7cbe
00000390: a581 a5be 12a6 afbe b5e6 6f3e 0644 9ebe
000003a0: 8041 67be ffde c2bd 14a6 cc3d 93ea ea3d
000003b0: 36f0 ecbd eb65 81be 477a 5cbe ce00 c3be
000003c0: 48e0 a7be 9749 a6bc b765 0ebe cf22 7cbe
000003d0: 68d7 6b3d 04b2 0fbd 87c1 4dbe ff0c aabd
000003e0: 58d2 0c3f 86f3 933e 1241 9bbe 3828 92be
000003f0: ee67 6cbe 2ef9 ef3d a3fd f6bd 2a68 663b

linear2.weight f4 [3, 256]
-0.009200785 -0.13508381 0.5759739 -0.15673722 -0.015079446 0.48209435 -0.0060658003 -0.05536155
0.2343771 -0.19700052 -0.36267185 -0.17504244 -0.013164292 -0.053485766 -0.24588649 0.44654495
-0.065482676 0.13041238 0.31927687 0.4272307 -0.12700689 -0.026505131 0.19688831 -0.28536373
0.2792896 0.014752144 0.008080165 0.3965446 0.4701 -0.24991496 0.032918602 -0.102258205
-0.06269661 0.12624118 0.25038835 0.012760569 0.18546276 -0.10931306 -0.15623744 -0.21697755
0.52363026 0.0011654478 -0.5900822 -0.15900877 0.3421451 -0.044749867 -0.050588656 -0.20998347
-0.0749372 -0.20153098 -0.39547682 0.031449996 0.18871638 0.10911996 -0.19397858 0.00048518836
0.22986077 -0.052200954 -0.122942545 -0.64678067 0.14684744 0.43512455 0.07401141 -0.11507786
0.019138977 0.018409092 0.23445022 -0.08773833 -0.09847319 0.0098690055 0.25382018 -0.025885483
0.2302052 -0.34464666 0.016263273 0.019996695 0.05766409 0.023929097 0.2653162 -0.047012415
-0.0047790245 0.22968014 0.1471129 0.46034333 -0.0833692 0.034975294 0.3420212 0.033766724
0.34176645 0.023668256 0.2676149 -0.21066295 -0.27698448 -0.06440914 -0.15805897 -0.3962636
-0.26247987 -0.074927196 0.028711567 -0.55105734 -0.11012894 -0.0015049209 0.32140863 0.037971333
-0.07110984 0.014104309 -0.22818108 -0.0256766 -0.052657377 -0.21660617 0.6027336 -0.15266496
0.091086596 0.06396991 -0.026406972 0.2869814 0.12864396 -0.019213425 -0.23165995 0.44756526
-0.049764108 -0.17286398 -0.3854258 0.0048944466 0.46551389 -0.013477361 0.3266088 -0.40056667
-0.21195129 0.40830204 -0.54660624 0.0048083644 0.2256408 0.031323913 -0.24723694 -0.14418423
0.14998175 0.12075303 -0.046226356 0.055626813 -0.009766183 -0.28480455 0.03295713 0.320693
0.2338966 -0.11832041 -0.14673084 -0.34291518 0.09200573 0.085299134 -0.1457036 -0.028330842
-0.22265474 0.2095932 -0.4799383 0.07864592 0.47360516 -0.019919548 -0.4621027 -0.036273085
-0.019810015 0.44495723 0.0588312 0.30523887 -0.085447036 0.029359812 -0.0075549707 0.31763074
0.18464029 0.15221332 0.2961597 -0.1741753 -0.06551353 -0.2542212 0.1307324 0.27497265
0.117033206 -0.20379688 0.09431631 0.1028115 0.19816574 0.07970528 -0.10712332 0.09252043
0.010667907 0.23911949 -0.031834412 -0.239081 -0.11074359 0.12588786 0.068575576 -0.6126978
0.1469385 0.34565815 -0.36844978 0.18759067 -0.12947105 0.23329942 0.33223414 0.0038542317
0.27417484 -0.09565925 0.024149997 -0.003756648 0.044479623 -0.0873798 -0.05932199 -0.041085243
0.11047743 -0.23963025 -0.07252844 0.2804056 -0.12645245 -0.014752245 0.30242622 -0.035911337
0.29064998 0.41018018 -0.59435064 -0.003291002 -0.083380826 -0.013570652 0.048189998 -0.38434038
0.45757654 -0.05044958 -0.7125774 -0.08008196 -0.04461878 -0.020508965 0.34968317 -0.020381223
0.013145873 -0.28570205 -0.3414018 0.47174835 -0.2525495 0.00012828948 -0.09881624 0.04513218
-0.30325896 0.23156078 0.04900928 -0.008045218 0.4169235 0.018781696 -0.30123678 -0.02112205
0.33268616 0.426915 -0.08105653 -0.10895996 -0.033684798 0.18968791 -0.263512 0.23440799
00000000: e4be 16bc 6953 0abe 0773 133f b97f 20be
00000010: c80f 77bc 12d5 f63e 9fc3 c6bb cbc2 62bd
00000020: 8d00 703e 81ba 49be 20b0 b9be 533e 33be
00000030: 0baf 57bc e413 5bbd abc9 7bbe 8aa1 e43e
00000040: c81b 86bd d38a 053e 4278 a33e fbbd da3e
00000050: 180e 02be 4a21 d9bc 179d 493e 321b 92be
00000060: 0cff 8e3e fab2 713c ab62 043c e507 cb3e
00000070: f2b0 f03e b5e9 7fbe a8d5 063d c06c d1bd
00000080: 1567 80bd 5e45 013e e732 803e b511 513c
00000090: f3e9 3d3e 87df dfbd b5fc 1fbe 5d2f 5ebe
000000a0: a20c 063f f0c1 983a a10f 17bf 32d3 22be
000000b0: a42d af3e a34b 37bd 0d36 4fbd e805 57be
000000c0: ad78 99bd 235e 4ebe f07b cabe b6d1 003d
000000d0: de3e 413e 497a df3d 52a2 46be e160 fe39
000000e0: 9f60 6b3e abd0 55bd 4dc9 fbbd 6b93 25bf
000000f0: 2d5f 163e a5c8 de3e 4b93 973d f1ad ebbd
00000100: 58c9 9c3c aace 963c b813 703e 27b0 b3bd
00000110: 50ac c9bd 9cb1 213c b8f4 813e cb0d d4bc
00000120: e9ba 6b3e 8775 b0be 8e3a 853c 1cd0 a33c
00000130: 2e31 6c3d f406 c43c 86d7 873e 1790 40bd
00000140: 5d99 9cbb 4531 6b3e c4a4 163e 1fb2 eb3e
00000150: 79bd aabd 4142 0f3d 671d af3e fa4e 0a3d
00000160: 03fc ae3e eee3 c13c d204 893e 07b8 57be
00000170: e9d0 8dbe f0e8 83bd 36da 21be 10e3 cabe
00000180: c363 86be 6e73 99bd 8534 eb3c 1812 0dbf
00000190: 488b e1bd c440 c5ba ac8f a43e d487 1b3d
000001a0: 09a2 91bd c215 673c 4da8 69be bc57 d2bc
000001b0: 43af 57bd 02ce 5dbe c04c 1a3f 3454 1cbe
000001c0: 9c8b ba3d a802 833d 6f53 d8bc 3aef 923e
000001d0: 3ebb 033e 7965 9dbc 4438 6dbe 4627 e53e
000001e0: 73d5 4bbd 4103 31be 8856 c5be 9861 a03b
000001f0: d657 ee3e 26d0 5cbc 4539 a73e 1317 cdbe
00000200: c209 59be f70c d13e 63ee 0bbf 7c8f 9d3b
00000210: 620e 673e 814d 003d ae2b 7dbe 08a5 13be
00000220: d194 193e 5d4d f73d d957 3dbd f1d8 633d
00000230: 5702 20bc e7d1 91be 0efe 063d df31 a43e
00000240: 9782 6f3e f951 f2bd 9c40 16be 9492 afbe
00000250: 806d bc3d 50b1 ae3d 5333 15be 1516 e8bc
00000260: 9bff 63be 9a9f 563e 79ba f5be 1d11 a13d
00000270: 607c f23e 522e a3bc ba98 ecbe 1693 14bd
00000280: 9d48 a2bc 6fd1 e33e fcf8 703d 4548 9c3e
00000290: dbfe aebd fd83 f03c b08f f7bb 7fa0 a23e
000002a0: 5812 3d3e cfdd 1b3e 3fa2 973e 035b 32be
000002b0: f52b 86bd 4829 82be b7de 053e 37c9 8c3e
000002c0: 1baf ef3d 21b0 50be e928 c13d d68e d23d
000002d0: f6eb 4a3e 863c a33d 7963 dbbd 5a7b bd3d
000002e0: 72c8 2e3c bddb 743e cd64 02bd a6d1 74be
000002f0: 89cd e2bd bfe8 003e 5a71 8c3d c3d9 1cbf
00000300: 0c77 163e 1bfa b03e 73a5 bcbe c517 403e
00000310: 0f94 04be 0be6 6e3e 981a aa3e 4797 7c3b
00000320: a560 8c3e ffe8 c3bd 37d6 c53c 1832 76bb
00000330: 4430 363d 2ef4 b2bd 9dfb 72bd 0049 28bd
00000340: fe41 e23d a261 75be ca89 94bd 5391 8f3e
00000350: c07c 01be 66b3 71bc 9cd7 9a3e c417 13bd
00000360: 13d0 943e 2303 d23e 5d27 18bf daad 57bb
00000370: 91c3 aabd 7157 5ebc e062 453d 43c8 c4be
00000380: 7947 ea3e 38a4 4ebd 796b 36bf 0302 a4bd
00000390: 2fc2 36bd 6b02 a8bc ac09 b33e 86f6 a6bc
000003a0: ca61 573c 8a47 92be 37cc aebe 0089 f13e
000003b0: 2b4e 81be 7285 0639 2b60 cabd 85dc 383d
000003c0: c244 9bbe 451e 6d3e f4bd 483d 17d0 03bc
000003d0: ff76 d53e 12dc 993c b53b 9abe 2608 adbc
000003e0: d755 aa3e 9a94 da3e f700 a6bd 6626 dfbd
000003f0: 12f9 09bd 8c3d 423e 0beb 86be a608 703e

linear2.bias f4 [3]
0.22942115 0.13183042 0.022490526
00000000: 61ed 6a3e 8efe 063e 0d3e b83c
